…
ps://localhost:8080/"},"id":"M84K0N6DR_nQ","executionInfo":{"status":"ok","timestamp":1684437208311,"user_tz":-330,"elapsed":558,"user":{"displayName":"Yash Brahmankar","userId":"10107617456586174167"}},"outputId":"54af6d87-1f2c-48f2-fe11-c7fef647e645"},"execution_count":14,"outputs":[{"output_type":"stream","name":"stdout","text":["Model: \"sequential\"\n","_________________________________________________________________\n"," Layer (type)                Output Shape              Param #   \n","=================================================================\n"," dense (Dense)               (None, 32)                736       \n","                                                                 \n"," dense_1 (Dense)             (None, 64)                2112      \n","                                                                 \n"," dense_2 (Dense)             (None, 128)               8320      \n","                                                                 \n"," dense_3 (Dense)             (None, 256)               33024     \n","                                                                 \n"," dense_4 (Dense)             (None, 512)               131584    \n","                                                                 \n"," dense_5 (Dense)             (None, 1024)              525312    \n","                                                                 \n"," dense_6 (Dense)             (None, 2048)              2099200   \n","                                                                 \n"," dense_7 (Dense)             (None, 256)               524544    \n","                                                                 \n"," dense_8 (Dense)             (None, 128)               32896     \n","                                                                 \n"," dense_9 (Dense)             (None, 64)                8256      \n","                                                                 \n"," dense_10 (Dense)            (None, 32)                2080      \n","                                                                 \n"," dense_11 (Dense)            (None, 16)                528       \n","                                                                 \n"," dense_12 (Dense)            (None, 1)                 17        \n","                                                                 \n","=================================================================\n","Total params: 3,368,609\n","Trainable params: 3,368,609\n","Non-trainable params: 0\n","_________________________________________________________________\n"]}]},{"cell_type":"code","source":["model.compile(optimizer='adam', loss='mse', metrics=[\"
…
